--- ckpt.info organization (tracks last training epoch): ---
epoch,learning_rate,test_loss,abs_rel,sq_rel,rmse,rmse_log,d1,d2,d3
----------------------------------------------------------------
        Layer (type)               Output Shape         Param #
================================================================
            Conv2d-1            [16, 8, 48, 48]             224
         LeakyReLU-2            [16, 8, 48, 48]               0
            Conv2d-3            [16, 8, 48, 48]             584
         LeakyReLU-4            [16, 8, 48, 48]               0
            Conv2d-5           [16, 16, 24, 24]           1,168
         LeakyReLU-6           [16, 16, 24, 24]               0
            Conv2d-7           [16, 16, 24, 24]           2,320
         LeakyReLU-8           [16, 16, 24, 24]               0
            Conv2d-9           [16, 32, 12, 12]           4,640
        LeakyReLU-10           [16, 32, 12, 12]               0
           Conv2d-11           [16, 32, 12, 12]           9,248
        LeakyReLU-12           [16, 32, 12, 12]               0
   ShallowEncoder-13  [[-1, 8, 48, 48], [-1, 16, 24, 24], [-1, 32, 12, 12]]               0
        Dropout2d-14           [16, 32, 12, 12]               0
           Conv2d-15           [16, 32, 12, 12]           9,248
        LeakyReLU-16           [16, 32, 12, 12]               0
           Conv2d-17           [16, 32, 12, 12]           9,248
        LeakyReLU-18           [16, 32, 12, 12]               0
           Conv2d-19           [16, 32, 12, 12]           9,248
         PDecoder-20           [16, 32, 12, 12]               0
  ConvTranspose2d-21           [16, 32, 24, 24]           4,128
        Upsampler-22           [16, 32, 24, 24]               0
           Conv2d-23           [16, 32, 24, 24]          13,856
        LeakyReLU-24           [16, 32, 24, 24]               0
           Conv2d-25           [16, 32, 24, 24]           9,248
        LeakyReLU-26           [16, 32, 24, 24]               0
           Conv2d-27           [16, 32, 24, 24]           9,248
         PDecoder-28           [16, 32, 24, 24]               0
  ConvTranspose2d-29           [16, 32, 48, 48]           4,128
        Upsampler-30           [16, 32, 48, 48]               0
           Conv2d-31           [16, 32, 48, 48]          11,552
        LeakyReLU-32           [16, 32, 48, 48]               0
           Conv2d-33           [16, 32, 48, 48]           9,248
        LeakyReLU-34           [16, 32, 48, 48]               0
           Conv2d-35            [16, 1, 48, 48]             289
         PDecoder-36            [16, 1, 48, 48]               0
             ReLU-37            [16, 1, 48, 48]               0
================================================================
Total params: 107,625
Trainable params: 107,625
Non-trainable params: 0
----------------------------------------------------------------
Input size (MB): 0.42
Forward/backward pass size (MB): 5971875.47
Params size (MB): 0.41
Estimated Total Size (MB): 5971876.30
----------------------------------------------------------------
