…
ut and label sizes: ---
Input size: [3, 48, 48]
Label size: [1, 48, 48]

--- Hyperparameters: ---
Epochs: 200
Learning rate: 5e-05 to 1.25e-05 (scale every 40 epochs)

--- Results: ---
best_epoch  = 199.000
abs_rel     = 0.329
sq_rel      = 8.582
rmse        = 141.291
rmse_log    = 0.437
d1          = 0.637
d2          = 0.825
d3          = 0.902

--- Trained Model: ---

----------------------------------------------------------------
        Layer (type)               Output Shape         Param #
================================================================
            Conv2d-1            [16, 8, 48, 48]             224
         LeakyReLU-2            [16, 8, 48, 48]               0
            Conv2d-3            [16, 8, 48, 48]             584
         LeakyReLU-4            [16, 8, 48, 48]               0
            Conv2d-5           [16, 16, 24, 24]           1,168
         LeakyReLU-6           [16, 16, 24, 24]               0
            Conv2d-7           [16, 16, 24, 24]           2,320
         LeakyReLU-8           [16, 16, 24, 24]               0
            Conv2d-9           [16, 32, 12, 12]           4,640
        LeakyReLU-10           [16, 32, 12, 12]               0
           Conv2d-11           [16, 32, 12, 12]           9,248
        LeakyReLU-12           [16, 32, 12, 12]               0
   ShallowEncoder-13  [[-1, 8, 48, 48], [-1, 16, 24, 24], [-1, 32, 12, 12]]               0
           Conv2d-14           [16, 32, 12, 12]           9,248
        LeakyReLU-15           [16, 32, 12, 12]               0
           Conv2d-16           [16, 32, 12, 12]           9,248
        LeakyReLU-17           [16, 32, 12, 12]               0
           Conv2d-18           [16, 32, 12, 12]           9,248
         PDecoder-19           [16, 32, 12, 12]               0
  ConvTranspose2d-20           [16, 32, 24, 24]           4,128
        Upsampler-21           [16, 32, 24, 24]               0
           Conv2d-22           [16, 32, 24, 24]          13,856
        LeakyReLU-23           [16, 32, 24, 24]               0
           Conv2d-24           [16, 32, 24, 24]           9,248
        LeakyReLU-25           [16, 32, 24, 24]               0
           Conv2d-26           [16, 32, 24, 24]           9,248
         PDecoder-27           [16, 32, 24, 24]               0
  ConvTranspose2d-28           [16, 32, 48, 48]           4,128
        Upsampler-29           [16, 32, 48, 48]               0
           Conv2d-30           [16, 32, 48, 48]          11,552
        LeakyReLU-31           [16, 32, 48, 48]               0
           Conv2d-32           [16, 32, 48, 48]           9,248
        LeakyReLU-33           [16, 32, 48, 48]               0
           Conv2d-34            [16, 1, 48, 48]             289
         PDecoder-35            [16, 1, 48, 48]               0
             ReLU-36            [16, 1, 48, 48]               0
================================================================
Total params: 107,625
Trainable params: 107,625
Non-trainable params: 0
----------------------------------------------------------------
Input size (MB): 0.42
Forward/backward pass size (MB): 5971876.03
Params size (MB): 0.41
Estimated Total Size (MB): 5971876.86
----------------------------------------------------------------



